…
st\u5bf9\u5e94\u7684\u7279\u5f81\u548c\u6a21\u578b\n\n      Parameters:\n         * **sentence_list** -- \u53e5\u5b50\u5217\u8868\uff08\u5206\u8bcd\u540e\uff09\n\n         * **model_file** -- tf-idf\u6a21\u578b\u6587\u4ef6\n\n      Returns:\n         tf_idf_model(\u6a21\u578b\u5b9e\u4f8b), tfidf_feature(sentence_list\u5bf9\u5e94\u7684tf-\n         idf\u7279\u5f81)\n\n      >>> tf_idf_model, tfidf_feature = kwe.get_tf_idf(['\u6770\u4f26 \u662f \u53f0\u6e7e \u6b4c\u624b', '\u4e03\u91cc\u9999 \u662f \u6770\u4f26 \u521b\u4f5c'], file_conf.tf_idf_file_path)\n      >>> print(tfidf_feature)\n        (0, 4)        0.6316672017376245\n        (0, 3)        0.4494364165239821\n        (0, 2)        0.6316672017376245\n        (1, 3)        0.4494364165239821\n        (1, 1)        0.6316672017376245\n        (1, 0)        0.6316672017376245\n\n   get_topk_keywords(data_list, topk=200)\n\n      \u5f97\u5230topk\u4e2a\u5173\u952e\u8bcd\n\n      Parameters:\n         * **data_list** -- \u53e5\u5b50\u5217\u8868\uff08\u5206\u8bcd\u540e\uff09\n\n         * **topk** -- tf-idf\u91cd\u8981\u5ea6\u6392\u5e8f\u540e\u524dtopk\n\n      Returns:\n         keywords\n\n      >>> keywords = kwe.get_topk_keywords(['\u6770\u4f26 \u662
…
