…
 torch.save(optim.state_dict(), optim_file)\n```\n\n### `from wingman import NeuralBlocks`\n\nNeural blocks is a module for quickly prototyping neural network architectures.\nIt offers several easier methods of defining standardized modules:\n\n#### Simple 3-layer MLP with ReLU activation\n```python\n>>> from wingman import NeuralBlocks\n>>> features = [4, 16, 64, 3]\n>>> activation = [\"relu\", \"tanh\", \"identity\"]\n>>> norm = \"batch\"\n>>> bias = True\n>>> MLP = NeuralBlocks.generate_linear_stack(features, activation, norm, bias)\n>>> print(MLP)\n\nSequential(\n  (0): Sequential(\n    (0): BatchNorm1d(4, eps=1e-05, momentum=0.1, affine=True, track_running_stats=True)\n    (1): Linear(in_features=4, out_features=16, bias=True)\n    (2): ReLU()\n  )\n  (1): Sequential(\n    (0): BatchNorm1d(16, eps=1e-05, momentum=0.1, affine=True, track_running_stats=True)\n    (1): Linear(in_features=16, out_features=64, bias=True)\n    (2): Tanh()\n  )\n  (2): Sequential(\n    (0): BatchNorm1d(64, eps=1e-05, momentum=0.1, affine=True, track_running_stats=True)\n    (1): Linear(in_features=64, out_features=3, bias=True)\n    (2): Identity()\n  )\n)\n```\n\n#### 4 layer convolutional network with same padding and MaxPool2d across the last two layers\n```python\n>>> from wingman import NeuralBlocks\n>>> channels = [3, 16, 32, 64, 1]\n>>> kernels = [3, 1, 3, 1]\n>>> pooling = [0, 0, 2, 2]\n>>> activation = [\"relu\", \"relu\", \"tanh\", \"tanh\"]\n>>> padding = None # this is equivalent to same padding\n>>> norm = \"batch\"\n>>> CNN = NeuralBlocks.generate_conv_stack(channels, kernels, pooling, activation, padding, norm)\n>>> print(CNN)\n\nSequential(\n  (0): Sequential(\n    (0): BatchNorm2d(3, eps=1e-05, momentum=0.1, affine=True, track_running_stats=True)\n    (1): Conv2d(3, 16, kernel_size=(3, 3), stride=(1, 1), padding=(1, 1))\n    (2): ReLU()\n  )\n  (1): Sequential(\n    (0): BatchNorm2d(16, eps=1e-05, momentum=0.1, affine=True, track_running_stats=True)\n    (1): Conv2d(16, 32, kernel_size=(1, 1), stride=(1, 1))\n    (2): ReLU()\n  )\n  (2): Sequential(\n    (0): BatchNorm2d(32, eps=1e-05, momentum=0.1, affine=True, track_running_stats=True)\n    (1): Conv2d(32, 64, kernel_size=(3, 3), stride=(1, 1), padding=(1, 1))\n    (2): MaxPool2d(kernel_size=2, stride=2, padding=0, dilation=1, ceil_mode=False)\n    (3): Tanh()\n  )\n  (3): Sequential(\n    (0): BatchNorm2d(64, eps=1e-05, momentum=0.1, affine=True, track_running_stats=True)\n    (1): Conv2d(64, 1, kernel_size=(1, 1), stride=(1, 1))\n    (2): MaxPool2d(kernel_size=2, stride=2, padding=0, dilation=1, ceil_mode=False)\n    (3): Tanh()\n  )\n)\n```\n\n#### 2 layer transposed convolutional network\n```python\n>>> from wingman import NeuralBlocks\n>>> channels = [64, 32, 3]\n>>> kernels = [4, 4]\n>>> padding = [1, 1]\n>>> stride = [2, 2]\n>>> activation = [\"lrelu\", \"lrelu\"]\n>>> norm = \"non\"\n>>> TCNN = NeuralBlocks.generate_deconv_stack(channels, kernels, padding, stride, activation, norm)\n>>> print(TCNN)\n\nSequential(\n  (0): Sequential(\n    (0): ConvTranspose2d(64, 32, kernel_size=(4, 4), stride=(2, 2), padding=(1, 1))\n    (1): LeakyReLU(negative_slope=0.01)\n  )\n  (1): Sequential(\n    (0): ConvTranspose2d(32, 3, kernel_size=(4, 4), stride=(2, 2), padding=(1, 1))\n    (1): LeakyReLU(negative_slope=0.01)\n  )\n)\n```\n\nThe Neural Blocks module also has functions that can generate single modules, refer to the file itself for more details.\n\n### `from wingman import ReplayBuffer`\n\nThis is a replay buffer designed around Torch's Dataloader class for reinforcement learning projects.\nThis allows easy
…
